…
2022-02-03 22:19:31,187:INFO: --------------------------------------------------------------------------------
2022-02-03 22:19:31,187:INFO: sample_filename=ginkgo_kt_1020000jets
2022-02-03 22:19:31,187:INFO: ------------------------------------------------------------
2022-02-03 22:19:31,187:INFO: Loading the datasets...
2022-02-03 22:19:35,372:INFO: - done loading the datasets
2022-02-03 22:19:35,372:INFO: ------------------------------------------------------------
2022-02-03 22:19:35,420:INFO: Total parameters of the model= 728801
2022-02-03 22:19:35,420:INFO: Total weights of the model= 728801
2022-02-03 22:19:35,421:INFO: Model= PredictFromParticleEmbeddingNiNReLU(
  (fc_u): Linear(in_features=4, out_features=160, bias=True)
  (fc_h): Linear(in_features=480, out_features=160, bias=True)
  (fc_u_inner1): Linear(in_features=4, out_features=160, bias=True)
  (fc_u_outer1): Linear(in_features=4, out_features=160, bias=True)
  (fc_u_inner): Linear(in_features=4, out_features=160, bias=True)
  (fc_u_outer): Linear(in_features=4, out_features=160, bias=True)
  (fc_N0): Linear(in_features=160, out_features=160, bias=True)
  (fc_N1): Linear(in_features=160, out_features=160, bias=True)
  (fc_N2): Linear(in_features=160, out_features=160, bias=True)
  (fc_N3): Linear(in_features=160, out_features=160, bias=True)
  (fc_N4): Linear(in_features=160, out_features=160, bias=True)
  (fc_N5): Linear(in_features=160, out_features=160, bias=True)
  (fc_N6): Linear(in_features=160, out_features=160, bias=True)
  (fc_N7): Linear(in_features=160, out_features=160, bias=True)
  (fc_N8): Linear(in_features=160, out_features=160, bias=True)
  (fc_N9): Linear(in_features=160, out_features=160, bias=True)
  (transform): GRNNTransformSimpleNiNReLU(
    (fc_u): Linear(in_features=4, out_features=160, bias=True)
    (fc_h): Linear(in_features=480, out_features=160, bias=True)
    (fc_u_inner1): Linear(in_features=4, out_features=160, bias=True)
    (fc_u_outer1): Linear(in_features=4, out_features=160, bias=True)
    (fc_u_inner): Linear(in_features=4, out_features=160, bias=True)
    (fc_u_outer): Linear(in_features=4, out_features=160, bias=True)
    (fc_N0): Linear(in_features=160, out_features=160, bias=True)
    (fc_N1): Linear(in_features=160, out_features=160, bias=True)
    (fc_N2): Linear(in_features=160, out_features=160, bias=True)
    (fc_N3): Linear(in_features=160, out_features=160, bias=True)
    (fc_N4): Linear(in_features=160, out_features=160, bias=True)
    (fc_N5): Linear(in_features=160, out_features=160, bias=True)
    (fc_N6): Linear(in_features=160, out_features=160, bias=True)
    (fc_N7): Linear(in_features=160, out_features=160, bias=True)
    (fc_N8): Linear(in_features=160, out_features=160, bias=True)
    (fc_N9): Linear(in_features=160, out_features=160, bias=True)
  )
  (fc1): Linear(in_features=160, out_features=160, bias=True)
  (fc2): Linear(in_features=160, out_features=160, bias=True)
  (fc3): Linear(in_features=160, out_features=1, bias=True)
)
2022-02-03 22:19:35,421:INFO: ------------------------------------------------------------
2022-02-03 22:19:35,421:INFO: Building optimizer...
2022-02-03 22:19:35,421:INFO: Starting training for 30 epoch(s)
2022-02-03 22:19:37,226:INFO: Epoch 1/30
2022-02-03 22:25:21,113:INFO: - Train metrics: accuracy: 0.5007 ; loss: 0.6937
2022-02-03 22:26:09,117:INFO: - Eval metrics : accuracy: 0.5000 ; loss: 0.6931
…
