…
2022-01-14 12:22:35,706:INFO: --------------------------------------------------------------------------------
2022-01-14 12:22:35,706:INFO: sample_filename=ginkgo_kt_800jets
2022-01-14 12:22:35,706:INFO: ------------------------------------------------------------
2022-01-14 12:22:35,707:INFO: Loading the datasets...
2022-01-14 12:22:35,717:INFO: - done loading the datasets
2022-01-14 12:22:35,717:INFO: ------------------------------------------------------------
2022-01-14 12:22:35,740:INFO: Total parameters of the model= 287501
2022-01-14 12:22:35,740:INFO: Total weights of the model= 287501
2022-01-14 12:22:35,740:INFO: Model= PredictFromParticleEmbeddingNiNReLU(
  (fc_u): Linear(in_features=4, out_features=100, bias=True)
  (fc_h): Linear(in_features=300, out_features=100, bias=True)
  (fc_u_inner1): Linear(in_features=4, out_features=100, bias=True)
  (fc_u_outer1): Linear(in_features=4, out_features=100, bias=True)
  (fc_u_inner): Linear(in_features=4, out_features=100, bias=True)
  (fc_u_outer): Linear(in_features=4, out_features=100, bias=True)
  (fc_N0): Linear(in_features=100, out_features=100, bias=True)
  (fc_N1): Linear(in_features=100, out_features=100, bias=True)
  (fc_N2): Linear(in_features=100, out_features=100, bias=True)
  (fc_N3): Linear(in_features=100, out_features=100, bias=True)
  (fc_N4): Linear(in_features=100, out_features=100, bias=True)
  (fc_N5): Linear(in_features=100, out_features=100, bias=True)
  (fc_N6): Linear(in_features=100, out_features=100, bias=True)
  (fc_N7): Linear(in_features=100, out_features=100, bias=True)
  (fc_N8): Linear(in_features=100, out_features=100, bias=True)
  (fc_N9): Linear(in_features=100, out_features=100, bias=True)
  (transform): GRNNTransformSimpleNiNReLU(
    (fc_u): Linear(in_features=4, out_features=100, bias=True)
    (fc_h): Linear(in_features=300, out_features=100, bias=True)
    (fc_u_inner1): Linear(in_features=4, out_features=100, bias=True)
    (fc_u_outer1): Linear(in_features=4, out_features=100, bias=True)
    (fc_u_inner): Linear(in_features=4, out_features=100, bias=True)
    (fc_u_outer): Linear(in_features=4, out_features=100, bias=True)
    (fc_N0): Linear(in_features=100, out_features=100, bias=True)
    (fc_N1): Linear(in_features=100, out_features=100, bias=True)
    (fc_N2): Linear(in_features=100, out_features=100, bias=True)
    (fc_N3): Linear(in_features=100, out_features=100, bias=True)
    (fc_N4): Linear(in_features=100, out_features=100, bias=True)
    (fc_N5): Linear(in_features=100, out_features=100, bias=True)
    (fc_N6): Linear(in_features=100, out_features=100, bias=True)
    (fc_N7): Linear(in_features=100, out_features=100, bias=True)
    (fc_N8): Linear(in_features=100, out_features=100, bias=True)
    (fc_N9): Linear(in_features=100, out_features=100, bias=True)
  )
  (fc1): Linear(in_features=100, out_features=100, bias=True)
  (fc2): Linear(in_features=100, out_features=100, bias=True)
  (fc3): Linear(in_features=100, out_features=1, bias=True)
)
2022-01-14 12:22:35,743:INFO: ------------------------------------------------------------
2022-01-14 12:22:35,743:INFO: Building optimizer...
2022-01-14 12:22:35,745:INFO: Starting training for 2 epoch(s)
2022-01-14 12:22:35,746:INFO: Epoch 1/2
2022-01-14 12:22:42,532:INFO: - Train metrics: accuracy: 0.4750 ; loss: 0.7353
2022-01-14 12:23:05,473:INFO: - Eval metrics : accuracy: 0.5000 ; loss: 0.7374
…
