…
2022-01-18 12:39:42,808:INFO: --------------------------------------------------------------------------------
2022-01-18 12:39:42,808:INFO: sample_filename=ginkgo_truth_2000jets
2022-01-18 12:39:42,810:INFO: ------------------------------------------------------------
2022-01-18 12:39:42,810:INFO: Loading the datasets...
2022-01-18 12:39:43,763:INFO: - done loading the datasets
2022-01-18 12:39:43,763:INFO: ------------------------------------------------------------
2022-01-18 12:39:43,774:INFO: Total parameters of the model= 47801
2022-01-18 12:39:43,774:INFO: Total weights of the model= 47801
2022-01-18 12:39:43,775:INFO: Model= PredictFromParticleEmbeddingNiNReLU(
  (fc_u): Linear(in_features=4, out_features=40, bias=True)
  (fc_h): Linear(in_features=120, out_features=40, bias=True)
  (fc_u_inner1): Linear(in_features=4, out_features=40, bias=True)
  (fc_u_outer1): Linear(in_features=4, out_features=40, bias=True)
  (fc_u_inner): Linear(in_features=4, out_features=40, bias=True)
  (fc_u_outer): Linear(in_features=4, out_features=40, bias=True)
  (fc_N0): Linear(in_features=40, out_features=40, bias=True)
  (fc_N1): Linear(in_features=40, out_features=40, bias=True)
  (fc_N2): Linear(in_features=40, out_features=40, bias=True)
  (fc_N3): Linear(in_features=40, out_features=40, bias=True)
  (fc_N4): Linear(in_features=40, out_features=40, bias=True)
  (fc_N5): Linear(in_features=40, out_features=40, bias=True)
  (fc_N6): Linear(in_features=40, out_features=40, bias=True)
  (fc_N7): Linear(in_features=40, out_features=40, bias=True)
  (fc_N8): Linear(in_features=40, out_features=40, bias=True)
  (fc_N9): Linear(in_features=40, out_features=40, bias=True)
  (transform): GRNNTransformSimpleNiNReLU(
    (fc_u): Linear(in_features=4, out_features=40, bias=True)
    (fc_h): Linear(in_features=120, out_features=40, bias=True)
    (fc_u_inner1): Linear(in_features=4, out_features=40, bias=True)
    (fc_u_outer1): Linear(in_features=4, out_features=40, bias=True)
    (fc_u_inner): Linear(in_features=4, out_features=40, bias=True)
    (fc_u_outer): Linear(in_features=4, out_features=40, bias=True)
    (fc_N0): Linear(in_features=40, out_features=40, bias=True)
    (fc_N1): Linear(in_features=40, out_features=40, bias=True)
    (fc_N2): Linear(in_features=40, out_features=40, bias=True)
    (fc_N3): Linear(in_features=40, out_features=40, bias=True)
    (fc_N4): Linear(in_features=40, out_features=40, bias=True)
    (fc_N5): Linear(in_features=40, out_features=40, bias=True)
    (fc_N6): Linear(in_features=40, out_features=40, bias=True)
    (fc_N7): Linear(in_features=40, out_features=40, bias=True)
    (fc_N8): Linear(in_features=40, out_features=40, bias=True)
    (fc_N9): Linear(in_features=40, out_features=40, bias=True)
  )
  (fc1): Linear(in_features=40, out_features=40, bias=True)
  (fc2): Linear(in_features=40, out_features=40, bias=True)
  (fc3): Linear(in_features=40, out_features=1, bias=True)
)
2022-01-18 12:39:43,775:INFO: ------------------------------------------------------------
2022-01-18 12:39:43,775:INFO: Building optimizer...
2022-01-18 12:39:43,776:INFO: Starting training for 30 epoch(s)
2022-01-18 12:39:43,778:INFO: Epoch 1/30
2022-01-18 12:40:16,062:INFO: - Train metrics: accuracy: 0.4868 ; loss: 0.7105
2022-01-18 12:40:29,844:INFO: - Eval metrics : accuracy: 0.4948 ; loss: 0.6986
…
