…
2022-02-03 17:36:35,367:INFO: --------------------------------------------------------------------------------
2022-02-03 17:36:35,367:INFO: sample_filename=ginkgo_antikt_1020000jets
2022-02-03 17:36:35,368:INFO: ------------------------------------------------------------
2022-02-03 17:36:35,368:INFO: Loading the datasets...
2022-02-03 17:36:39,393:INFO: - done loading the datasets
2022-02-03 17:36:39,394:INFO: ------------------------------------------------------------
2022-02-03 17:36:39,544:INFO: Total parameters of the model= 47801
2022-02-03 17:36:39,544:INFO: Total weights of the model= 47801
2022-02-03 17:36:39,545:INFO: Model= PredictFromParticleEmbeddingNiNReLU(
  (fc_u): Linear(in_features=4, out_features=40, bias=True)
  (fc_h): Linear(in_features=120, out_features=40, bias=True)
  (fc_u_inner1): Linear(in_features=4, out_features=40, bias=True)
  (fc_u_outer1): Linear(in_features=4, out_features=40, bias=True)
  (fc_u_inner): Linear(in_features=4, out_features=40, bias=True)
  (fc_u_outer): Linear(in_features=4, out_features=40, bias=True)
  (fc_N0): Linear(in_features=40, out_features=40, bias=True)
  (fc_N1): Linear(in_features=40, out_features=40, bias=True)
  (fc_N2): Linear(in_features=40, out_features=40, bias=True)
  (fc_N3): Linear(in_features=40, out_features=40, bias=True)
  (fc_N4): Linear(in_features=40, out_features=40, bias=True)
  (fc_N5): Linear(in_features=40, out_features=40, bias=True)
  (fc_N6): Linear(in_features=40, out_features=40, bias=True)
  (fc_N7): Linear(in_features=40, out_features=40, bias=True)
  (fc_N8): Linear(in_features=40, out_features=40, bias=True)
  (fc_N9): Linear(in_features=40, out_features=40, bias=True)
  (transform): GRNNTransformSimpleNiNReLU(
    (fc_u): Linear(in_features=4, out_features=40, bias=True)
    (fc_h): Linear(in_features=120, out_features=40, bias=True)
    (fc_u_inner1): Linear(in_features=4, out_features=40, bias=True)
    (fc_u_outer1): Linear(in_features=4, out_features=40, bias=True)
    (fc_u_inner): Linear(in_features=4, out_features=40, bias=True)
    (fc_u_outer): Linear(in_features=4, out_features=40, bias=True)
    (fc_N0): Linear(in_features=40, out_features=40, bias=True)
    (fc_N1): Linear(in_features=40, out_features=40, bias=True)
    (fc_N2): Linear(in_features=40, out_features=40, bias=True)
    (fc_N3): Linear(in_features=40, out_features=40, bias=True)
    (fc_N4): Linear(in_features=40, out_features=40, bias=True)
    (fc_N5): Linear(in_features=40, out_features=40, bias=True)
    (fc_N6): Linear(in_features=40, out_features=40, bias=True)
    (fc_N7): Linear(in_features=40, out_features=40, bias=True)
    (fc_N8): Linear(in_features=40, out_features=40, bias=True)
    (fc_N9): Linear(in_features=40, out_features=40, bias=True)
  )
  (fc1): Linear(in_features=40, out_features=40, bias=True)
  (fc2): Linear(in_features=40, out_features=40, bias=True)
  (fc3): Linear(in_features=40, out_features=1, bias=True)
)
2022-02-03 17:36:39,545:INFO: ------------------------------------------------------------
2022-02-03 17:36:39,545:INFO: Building optimizer...
2022-02-03 17:36:39,545:INFO: Starting training for 30 epoch(s)
2022-02-03 17:36:41,339:INFO: Epoch 1/30
2022-02-03 17:39:49,052:INFO: - Train metrics: accuracy: 0.5015 ; loss: 0.6937
2022-02-03 17:40:31,187:INFO: - Eval metrics : accuracy: 0.5049 ; loss: 0.6929
…
