…
CUDA_VISIBLE_DEVICES=2 /Users/laurengreenspan/miniconda3/bin/python train.py --model_dir=experiments/ginkgo/ginkgo_truth_lr_0.002_decay_0.9_batch_32_epochs_30_hidden_20_Njets_2000_features_4/run_0 --data_dir=../data/preprocessed_trees/ --jet_algorithm=truth --architecture=NiNRecNNReLU
sample_name=ginkgo
--------------------------------------------------------------------------------
sample_filename=ginkgo_truth_2000jets
------------------------------------------------------------
Loading the datasets...
- done loading the datasets
------------------------------------------------------------
Total parameters of the model= 12701
Total weights of the model= 12701
Model= PredictFromParticleEmbeddingNiNReLU(
  (fc_u): Linear(in_features=4, out_features=20, bias=True)
  (fc_h): Linear(in_features=60, out_features=20, bias=True)
  (fc_u_inner1): Linear(in_features=4, out_features=20, bias=True)
  (fc_u_outer1): Linear(in_features=4, out_features=20, bias=True)
  (fc_u_inner): Linear(in_features=4, out_features=20, bias=True)
  (fc_u_outer): Linear(in_features=4, out_features=20, bias=True)
  (fc_N0): Linear(in_features=20, out_features=20, bias=True)
  (fc_N1): Linear(in_features=20, out_features=20, bias=True)
  (fc_N2): Linear(in_features=20, out_features=20, bias=True)
  (fc_N3): Linear(in_features=20, out_features=20, bias=True)
  (fc_N4): Linear(in_features=20, out_features=20, bias=True)
  (fc_N5): Linear(in_features=20, out_features=20, bias=True)
  (fc_N6): Linear(in_features=20, out_features=20, bias=True)
  (fc_N7): Linear(in_features=20, out_features=20, bias=True)
  (fc_N8): Linear(in_features=20, out_features=20, bias=True)
  (fc_N9): Linear(in_features=20, out_features=20, bias=True)
  (transform): GRNNTransformSimpleNiNReLU(
    (fc_u): Linear(in_features=4, out_features=20, bias=True)
    (fc_h): Linear(in_features=60, out_features=20, bias=True)
    (fc_u_inner1): Linear(in_features=4, out_features=20, bias=True)
    (fc_u_outer1): Linear(in_features=4, out_features=20, bias=True)
    (fc_u_inner): Linear(in_features=4, out_features=20, bias=True)
    (fc_u_outer): Linear(in_features=4, out_features=20, bias=True)
    (fc_N0): Linear(in_features=20, out_features=20, bias=True)
    (fc_N1): Linear(in_features=20, out_features=20, bias=True)
    (fc_N2): Linear(in_features=20, out_features=20, bias=True)
    (fc_N3): Linear(in_features=20, out_features=20, bias=True)
    (fc_N4): Linear(in_features=20, out_features=20, bias=True)
    (fc_N5): Linear(in_features=20, out_features=20, bias=True)
    (fc_N6): Linear(in_features=20, out_features=20, bias=True)
    (fc_N7): Linear(in_features=20, out_features=20, bias=True)
    (fc_N8): Linear(in_features=20, out_features=20, bias=True)
    (fc_N9): Linear(in_features=20, out_features=20, bias=True)
  )
  (fc1): Linear(in_features=20, out_features=20, bias=True)
  (fc2): Linear(in_features=20, out_features=20, bias=True)
  (fc3): Linear(in_features=20, out_features=1, bias=True)
)
------------------------------------------------------------
Building optimizer...
Starting training for 30 epoch(s)
Epoch 1/30
100%|█████████████████████████████████████████████████████████████████████| 37/37 [00:16<00:00,  2.22it/s, loss=0.725]
- Train metrics: accuracy: 0.5247 ; loss: 0.7219
--------------------------------------------------------------------------------
…
