…
2022-02-03 17:43:01,977:INFO: --------------------------------------------------------------------------------
2022-02-03 17:43:01,977:INFO: sample_filename=ginkgo_kt_1020000jets
2022-02-03 17:43:01,977:INFO: ------------------------------------------------------------
2022-02-03 17:43:01,977:INFO: Loading the datasets...
2022-02-03 17:43:06,265:INFO: - done loading the datasets
2022-02-03 17:43:06,265:INFO: ------------------------------------------------------------
2022-02-03 17:43:06,422:INFO: Total parameters of the model= 47801
2022-02-03 17:43:06,422:INFO: Total weights of the model= 47801
2022-02-03 17:43:06,422:INFO: Model= PredictFromParticleEmbeddingNiNReLU(
  (fc_u): Linear(in_features=4, out_features=40, bias=True)
  (fc_h): Linear(in_features=120, out_features=40, bias=True)
  (fc_u_inner1): Linear(in_features=4, out_features=40, bias=True)
  (fc_u_outer1): Linear(in_features=4, out_features=40, bias=True)
  (fc_u_inner): Linear(in_features=4, out_features=40, bias=True)
  (fc_u_outer): Linear(in_features=4, out_features=40, bias=True)
  (fc_N0): Linear(in_features=40, out_features=40, bias=True)
  (fc_N1): Linear(in_features=40, out_features=40, bias=True)
  (fc_N2): Linear(in_features=40, out_features=40, bias=True)
  (fc_N3): Linear(in_features=40, out_features=40, bias=True)
  (fc_N4): Linear(in_features=40, out_features=40, bias=True)
  (fc_N5): Linear(in_features=40, out_features=40, bias=True)
  (fc_N6): Linear(in_features=40, out_features=40, bias=True)
  (fc_N7): Linear(in_features=40, out_features=40, bias=True)
  (fc_N8): Linear(in_features=40, out_features=40, bias=True)
  (fc_N9): Linear(in_features=40, out_features=40, bias=True)
  (transform): GRNNTransformSimpleNiNReLU(
    (fc_u): Linear(in_features=4, out_features=40, bias=True)
    (fc_h): Linear(in_features=120, out_features=40, bias=True)
    (fc_u_inner1): Linear(in_features=4, out_features=40, bias=True)
    (fc_u_outer1): Linear(in_features=4, out_features=40, bias=True)
    (fc_u_inner): Linear(in_features=4, out_features=40, bias=True)
    (fc_u_outer): Linear(in_features=4, out_features=40, bias=True)
    (fc_N0): Linear(in_features=40, out_features=40, bias=True)
    (fc_N1): Linear(in_features=40, out_features=40, bias=True)
    (fc_N2): Linear(in_features=40, out_features=40, bias=True)
    (fc_N3): Linear(in_features=40, out_features=40, bias=True)
    (fc_N4): Linear(in_features=40, out_features=40, bias=True)
    (fc_N5): Linear(in_features=40, out_features=40, bias=True)
    (fc_N6): Linear(in_features=40, out_features=40, bias=True)
    (fc_N7): Linear(in_features=40, out_features=40, bias=True)
    (fc_N8): Linear(in_features=40, out_features=40, bias=True)
    (fc_N9): Linear(in_features=40, out_features=40, bias=True)
  )
  (fc1): Linear(in_features=40, out_features=40, bias=True)
  (fc2): Linear(in_features=40, out_features=40, bias=True)
  (fc3): Linear(in_features=40, out_features=1, bias=True)
)
2022-02-03 17:43:06,422:INFO: ------------------------------------------------------------
2022-02-03 17:43:06,422:INFO: Building optimizer...
2022-02-03 17:43:06,423:INFO: Starting training for 30 epoch(s)
2022-02-03 17:43:08,334:INFO: Epoch 1/30
2022-02-03 17:46:13,487:INFO: - Train metrics: accuracy: 0.5016 ; loss: 0.6937
2022-02-03 17:46:56,992:INFO: - Eval metrics : accuracy: 0.5040 ; loss: 0.6929
…
