…
2022-02-04 02:30:53,249:INFO: --------------------------------------------------------------------------------
2022-02-04 02:30:53,249:INFO: sample_filename=ginkgo_antikt_1020000jets
2022-02-04 02:30:53,249:INFO: ------------------------------------------------------------
2022-02-04 02:30:53,249:INFO: Loading the datasets...
2022-02-04 02:30:57,377:INFO: - done loading the datasets
2022-02-04 02:30:57,377:INFO: ------------------------------------------------------------
2022-02-04 02:30:57,502:INFO: Total parameters of the model= 2891201
2022-02-04 02:30:57,502:INFO: Total weights of the model= 2891201
2022-02-04 02:30:57,502:INFO: Model= PredictFromParticleEmbeddingNiNReLU(
  (fc_u): Linear(in_features=4, out_features=320, bias=True)
  (fc_h): Linear(in_features=960, out_features=320, bias=True)
  (fc_u_inner1): Linear(in_features=4, out_features=320, bias=True)
  (fc_u_outer1): Linear(in_features=4, out_features=320, bias=True)
  (fc_u_inner): Linear(in_features=4, out_features=320, bias=True)
  (fc_u_outer): Linear(in_features=4, out_features=320, bias=True)
  (fc_N0): Linear(in_features=320, out_features=320, bias=True)
  (fc_N1): Linear(in_features=320, out_features=320, bias=True)
  (fc_N2): Linear(in_features=320, out_features=320, bias=True)
  (fc_N3): Linear(in_features=320, out_features=320, bias=True)
  (fc_N4): Linear(in_features=320, out_features=320, bias=True)
  (fc_N5): Linear(in_features=320, out_features=320, bias=True)
  (fc_N6): Linear(in_features=320, out_features=320, bias=True)
  (fc_N7): Linear(in_features=320, out_features=320, bias=True)
  (fc_N8): Linear(in_features=320, out_features=320, bias=True)
  (fc_N9): Linear(in_features=320, out_features=320, bias=True)
  (transform): GRNNTransformSimpleNiNReLU(
    (fc_u): Linear(in_features=4, out_features=320, bias=True)
    (fc_h): Linear(in_features=960, out_features=320, bias=True)
    (fc_u_inner1): Linear(in_features=4, out_features=320, bias=True)
    (fc_u_outer1): Linear(in_features=4, out_features=320, bias=True)
    (fc_u_inner): Linear(in_features=4, out_features=320, bias=True)
    (fc_u_outer): Linear(in_features=4, out_features=320, bias=True)
    (fc_N0): Linear(in_features=320, out_features=320, bias=True)
    (fc_N1): Linear(in_features=320, out_features=320, bias=True)
    (fc_N2): Linear(in_features=320, out_features=320, bias=True)
    (fc_N3): Linear(in_features=320, out_features=320, bias=True)
    (fc_N4): Linear(in_features=320, out_features=320, bias=True)
    (fc_N5): Linear(in_features=320, out_features=320, bias=True)
    (fc_N6): Linear(in_features=320, out_features=320, bias=True)
    (fc_N7): Linear(in_features=320, out_features=320, bias=True)
    (fc_N8): Linear(in_features=320, out_features=320, bias=True)
    (fc_N9): Linear(in_features=320, out_features=320, bias=True)
  )
  (fc1): Linear(in_features=320, out_features=320, bias=True)
  (fc2): Linear(in_features=320, out_features=320, bias=True)
  (fc3): Linear(in_features=320, out_features=1, bias=True)
)
2022-02-04 02:30:57,503:INFO: ------------------------------------------------------------
2022-02-04 02:30:57,503:INFO: Building optimizer...
2022-02-04 02:30:57,503:INFO: Starting training for 30 epoch(s)
2022-02-04 02:30:59,370:INFO: Epoch 1/30
2022-02-04 02:45:16,340:INFO: - Train metrics: accuracy: 0.5009 ; loss: 0.6938
2022-02-04 02:46:19,502:INFO: - Eval metrics : accuracy: 0.5000 ; loss: 0.6932
…
