…
2022-02-03 19:49:34,926:INFO: --------------------------------------------------------------------------------
2022-02-03 19:49:34,926:INFO: sample_filename=ginkgo_kt_1020000jets
2022-02-03 19:49:34,926:INFO: ------------------------------------------------------------
2022-02-03 19:49:34,926:INFO: Loading the datasets...
2022-02-03 19:49:39,210:INFO: - done loading the datasets
2022-02-03 19:49:39,211:INFO: ------------------------------------------------------------
2022-02-03 19:49:39,366:INFO: Total parameters of the model= 185201
2022-02-03 19:49:39,366:INFO: Total weights of the model= 185201
2022-02-03 19:49:39,366:INFO: Model= PredictFromParticleEmbeddingNiNReLU(
  (fc_u): Linear(in_features=4, out_features=80, bias=True)
  (fc_h): Linear(in_features=240, out_features=80, bias=True)
  (fc_u_inner1): Linear(in_features=4, out_features=80, bias=True)
  (fc_u_outer1): Linear(in_features=4, out_features=80, bias=True)
  (fc_u_inner): Linear(in_features=4, out_features=80, bias=True)
  (fc_u_outer): Linear(in_features=4, out_features=80, bias=True)
  (fc_N0): Linear(in_features=80, out_features=80, bias=True)
  (fc_N1): Linear(in_features=80, out_features=80, bias=True)
  (fc_N2): Linear(in_features=80, out_features=80, bias=True)
  (fc_N3): Linear(in_features=80, out_features=80, bias=True)
  (fc_N4): Linear(in_features=80, out_features=80, bias=True)
  (fc_N5): Linear(in_features=80, out_features=80, bias=True)
  (fc_N6): Linear(in_features=80, out_features=80, bias=True)
  (fc_N7): Linear(in_features=80, out_features=80, bias=True)
  (fc_N8): Linear(in_features=80, out_features=80, bias=True)
  (fc_N9): Linear(in_features=80, out_features=80, bias=True)
  (transform): GRNNTransformSimpleNiNReLU(
    (fc_u): Linear(in_features=4, out_features=80, bias=True)
    (fc_h): Linear(in_features=240, out_features=80, bias=True)
    (fc_u_inner1): Linear(in_features=4, out_features=80, bias=True)
    (fc_u_outer1): Linear(in_features=4, out_features=80, bias=True)
    (fc_u_inner): Linear(in_features=4, out_features=80, bias=True)
    (fc_u_outer): Linear(in_features=4, out_features=80, bias=True)
    (fc_N0): Linear(in_features=80, out_features=80, bias=True)
    (fc_N1): Linear(in_features=80, out_features=80, bias=True)
    (fc_N2): Linear(in_features=80, out_features=80, bias=True)
    (fc_N3): Linear(in_features=80, out_features=80, bias=True)
    (fc_N4): Linear(in_features=80, out_features=80, bias=True)
    (fc_N5): Linear(in_features=80, out_features=80, bias=True)
    (fc_N6): Linear(in_features=80, out_features=80, bias=True)
    (fc_N7): Linear(in_features=80, out_features=80, bias=True)
    (fc_N8): Linear(in_features=80, out_features=80, bias=True)
    (fc_N9): Linear(in_features=80, out_features=80, bias=True)
  )
  (fc1): Linear(in_features=80, out_features=80, bias=True)
  (fc2): Linear(in_features=80, out_features=80, bias=True)
  (fc3): Linear(in_features=80, out_features=1, bias=True)
)
2022-02-03 19:49:39,366:INFO: ------------------------------------------------------------
2022-02-03 19:49:39,366:INFO: Building optimizer...
2022-02-03 19:49:39,367:INFO: Starting training for 30 epoch(s)
2022-02-03 19:49:41,337:INFO: Epoch 1/30
2022-02-03 19:53:25,553:INFO: - Train metrics: accuracy: 0.4991 ; loss: 0.6937
2022-02-03 19:54:10,637:INFO: - Eval metrics : accuracy: 0.5000 ; loss: 0.6932
…
