2022-01-13 12:55:09,626:INFO: sample_filename=ginkgo_kt_48jets
2022-01-13 12:55:09,626:INFO: ------------------------------------------------------------
2022-01-13 12:55:09,626:INFO: Loading the datasets...
2022-01-13 12:55:09,628:INFO: - done loading the datasets
2022-01-13 12:55:09,629:INFO: ------------------------------------------------------------
2022-01-13 12:55:09,736:INFO: Total parameters of the model= 119489
2022-01-13 12:55:09,736:INFO: Total weights of the model= 119489
2022-01-13 12:55:09,737:INFO: Model= PredictFromParticleEmbeddingNiNReLU(
  (fc_u): Linear(in_features=4, out_features=64, bias=True)
  (fc_h): Linear(in_features=192, out_features=64, bias=True)
  (fc_u_inner1): Linear(in_features=4, out_features=64, bias=True)
  (fc_u_outer1): Linear(in_features=4, out_features=64, bias=True)
  (fc_u_inner): Linear(in_features=4, out_features=64, bias=True)
  (fc_u_outer): Linear(in_features=4, out_features=64, bias=True)
  (fc_N0): Linear(in_features=64, out_features=64, bias=True)
  (fc_N1): Linear(in_features=64, out_features=64, bias=True)
  (fc_N2): Linear(in_features=64, out_features=64, bias=True)
  (fc_N3): Linear(in_features=64, out_features=64, bias=True)
  (fc_N4): Linear(in_features=64, out_features=64, bias=True)
  (fc_N5): Linear(in_features=64, out_features=64, bias=True)
  (fc_N6): Linear(in_features=64, out_features=64, bias=True)
  (fc_N7): Linear(in_features=64, out_features=64, bias=True)
  (fc_N8): Linear(in_features=64, out_features=64, bias=True)
  (fc_N9): Linear(in_features=64, out_features=64, bias=True)
  (transform): GRNNTransformSimpleNiNReLU(
    (fc_u): Linear(in_features=4, out_features=64, bias=True)
    (fc_h): Linear(in_features=192, out_features=64, bias=True)
    (fc_u_inner1): Linear(in_features=4, out_features=64, bias=True)
    (fc_u_outer1): Linear(in_features=4, out_features=64, bias=True)
    (fc_u_inner): Linear(in_features=4, out_features=64, bias=True)
    (fc_u_outer): Linear(in_features=4, out_features=64, bias=True)
    (fc_N0): Linear(in_features=64, out_features=64, bias=True)
    (fc_N1): Linear(in_features=64, out_features=64, bias=True)
    (fc_N2): Linear(in_features=64, out_features=64, bias=True)
    (fc_N3): Linear(in_features=64, out_features=64, bias=True)
    (fc_N4): Linear(in_features=64, out_features=64, bias=True)
    (fc_N5): Linear(in_features=64, out_features=64, bias=True)
    (fc_N6): Linear(in_features=64, out_features=64, bias=True)
    (fc_N7): Linear(in_features=64, out_features=64, bias=True)
    (fc_N8): Linear(in_features=64, out_features=64, bias=True)
    (fc_N9): Linear(in_features=64, out_features=64, bias=True)
  )
  (fc1): Linear(in_features=64, out_features=64, bias=True)
  (fc2): Linear(in_features=64, out_features=64, bias=True)
  (fc3): Linear(in_features=64, out_features=1, bias=True)
)
2022-01-13 12:55:09,737:INFO: ------------------------------------------------------------
2022-01-13 12:55:09,737:INFO: Building optimizer...
2022-01-13 12:55:09,738:INFO: Starting training for 4 epoch(s)
2022-01-13 12:55:09,739:INFO: Epoch 1/4
2022-01-13 12:55:14,671:INFO: Batch creation time4.816576957702637
2022-01-13 12:55:14,701:INFO: Computin Model Output and Loss
…
