…
2022-02-03 15:36:55,656:INFO: --------------------------------------------------------------------------------
2022-02-03 15:36:55,656:INFO: sample_filename=ginkgo_kt_1020000jets
2022-02-03 15:36:55,656:INFO: ------------------------------------------------------------
2022-02-03 15:36:55,657:INFO: Loading the datasets...
2022-02-03 15:37:00,037:INFO: - done loading the datasets
2022-02-03 15:37:00,038:INFO: ------------------------------------------------------------
2022-02-03 15:37:00,089:INFO: Total parameters of the model= 12701
2022-02-03 15:37:00,089:INFO: Total weights of the model= 12701
2022-02-03 15:37:00,089:INFO: Model= PredictFromParticleEmbeddingNiNReLU(
  (fc_u): Linear(in_features=4, out_features=20, bias=True)
  (fc_h): Linear(in_features=60, out_features=20, bias=True)
  (fc_u_inner1): Linear(in_features=4, out_features=20, bias=True)
  (fc_u_outer1): Linear(in_features=4, out_features=20, bias=True)
  (fc_u_inner): Linear(in_features=4, out_features=20, bias=True)
  (fc_u_outer): Linear(in_features=4, out_features=20, bias=True)
  (fc_N0): Linear(in_features=20, out_features=20, bias=True)
  (fc_N1): Linear(in_features=20, out_features=20, bias=True)
  (fc_N2): Linear(in_features=20, out_features=20, bias=True)
  (fc_N3): Linear(in_features=20, out_features=20, bias=True)
  (fc_N4): Linear(in_features=20, out_features=20, bias=True)
  (fc_N5): Linear(in_features=20, out_features=20, bias=True)
  (fc_N6): Linear(in_features=20, out_features=20, bias=True)
  (fc_N7): Linear(in_features=20, out_features=20, bias=True)
  (fc_N8): Linear(in_features=20, out_features=20, bias=True)
  (fc_N9): Linear(in_features=20, out_features=20, bias=True)
  (transform): GRNNTransformSimpleNiNReLU(
    (fc_u): Linear(in_features=4, out_features=20, bias=True)
    (fc_h): Linear(in_features=60, out_features=20, bias=True)
    (fc_u_inner1): Linear(in_features=4, out_features=20, bias=True)
    (fc_u_outer1): Linear(in_features=4, out_features=20, bias=True)
    (fc_u_inner): Linear(in_features=4, out_features=20, bias=True)
    (fc_u_outer): Linear(in_features=4, out_features=20, bias=True)
    (fc_N0): Linear(in_features=20, out_features=20, bias=True)
    (fc_N1): Linear(in_features=20, out_features=20, bias=True)
    (fc_N2): Linear(in_features=20, out_features=20, bias=True)
    (fc_N3): Linear(in_features=20, out_features=20, bias=True)
    (fc_N4): Linear(in_features=20, out_features=20, bias=True)
    (fc_N5): Linear(in_features=20, out_features=20, bias=True)
    (fc_N6): Linear(in_features=20, out_features=20, bias=True)
    (fc_N7): Linear(in_features=20, out_features=20, bias=True)
    (fc_N8): Linear(in_features=20, out_features=20, bias=True)
    (fc_N9): Linear(in_features=20, out_features=20, bias=True)
  )
  (fc1): Linear(in_features=20, out_features=20, bias=True)
  (fc2): Linear(in_features=20, out_features=20, bias=True)
  (fc3): Linear(in_features=20, out_features=1, bias=True)
)
2022-02-03 15:37:00,089:INFO: ------------------------------------------------------------
2022-02-03 15:37:00,089:INFO: Building optimizer...
2022-02-03 15:37:00,090:INFO: Starting training for 30 epoch(s)
2022-02-03 15:37:02,189:INFO: Epoch 1/30
2022-02-03 15:40:23,918:INFO: - Train metrics: accuracy: 0.5035 ; loss: 0.6935
2022-02-03 15:41:11,925:INFO: - Eval metrics : accuracy: 0.5000 ; loss: 0.6930
…
