2022-01-14 11:12:03,431:INFO: sample_filename=ginkgo_kt_48jets
2022-01-14 11:12:03,431:INFO: ------------------------------------------------------------
2022-01-14 11:12:03,432:INFO: Loading the datasets...
2022-01-14 11:12:03,435:INFO: - done loading the datasets
2022-01-14 11:12:03,436:INFO: ------------------------------------------------------------
2022-01-14 11:12:03,519:INFO: Total parameters of the model= 73751
2022-01-14 11:12:03,519:INFO: Total weights of the model= 73751
2022-01-14 11:12:03,520:INFO: Model= PredictFromParticleEmbeddingNiNReLU(
  (fc_u): Linear(in_features=4, out_features=50, bias=True)
  (fc_h): Linear(in_features=150, out_features=50, bias=True)
  (fc_u_inner1): Linear(in_features=4, out_features=50, bias=True)
  (fc_u_outer1): Linear(in_features=4, out_features=50, bias=True)
  (fc_u_inner): Linear(in_features=4, out_features=50, bias=True)
  (fc_u_outer): Linear(in_features=4, out_features=50, bias=True)
  (fc_N0): Linear(in_features=50, out_features=50, bias=True)
  (fc_N1): Linear(in_features=50, out_features=50, bias=True)
  (fc_N2): Linear(in_features=50, out_features=50, bias=True)
  (fc_N3): Linear(in_features=50, out_features=50, bias=True)
  (fc_N4): Linear(in_features=50, out_features=50, bias=True)
  (fc_N5): Linear(in_features=50, out_features=50, bias=True)
  (fc_N6): Linear(in_features=50, out_features=50, bias=True)
  (fc_N7): Linear(in_features=50, out_features=50, bias=True)
  (fc_N8): Linear(in_features=50, out_features=50, bias=True)
  (fc_N9): Linear(in_features=50, out_features=50, bias=True)
  (transform): GRNNTransformSimpleNiNReLU(
    (fc_u): Linear(in_features=4, out_features=50, bias=True)
    (fc_h): Linear(in_features=150, out_features=50, bias=True)
    (fc_u_inner1): Linear(in_features=4, out_features=50, bias=True)
    (fc_u_outer1): Linear(in_features=4, out_features=50, bias=True)
    (fc_u_inner): Linear(in_features=4, out_features=50, bias=True)
    (fc_u_outer): Linear(in_features=4, out_features=50, bias=True)
    (fc_N0): Linear(in_features=50, out_features=50, bias=True)
    (fc_N1): Linear(in_features=50, out_features=50, bias=True)
    (fc_N2): Linear(in_features=50, out_features=50, bias=True)
    (fc_N3): Linear(in_features=50, out_features=50, bias=True)
    (fc_N4): Linear(in_features=50, out_features=50, bias=True)
    (fc_N5): Linear(in_features=50, out_features=50, bias=True)
    (fc_N6): Linear(in_features=50, out_features=50, bias=True)
    (fc_N7): Linear(in_features=50, out_features=50, bias=True)
    (fc_N8): Linear(in_features=50, out_features=50, bias=True)
    (fc_N9): Linear(in_features=50, out_features=50, bias=True)
  )
  (fc1): Linear(in_features=50, out_features=50, bias=True)
  (fc2): Linear(in_features=50, out_features=50, bias=True)
  (fc3): Linear(in_features=50, out_features=1, bias=True)
)
2022-01-14 11:12:03,520:INFO: ------------------------------------------------------------
2022-01-14 11:12:03,520:INFO: Building optimizer...
2022-01-14 11:12:03,521:INFO: Starting training for 2 epoch(s)
2022-01-14 11:12:03,522:INFO: Epoch 1/2
2022-01-14 11:12:07,932:INFO: Batch creation time4.265913724899292
2022-01-14 11:12:07,958:INFO: Computin Model Output and Loss
…
