…
2022-02-03 22:17:22,748:INFO: --------------------------------------------------------------------------------
2022-02-03 22:17:22,748:INFO: sample_filename=ginkgo_antikt_1020000jets
2022-02-03 22:17:22,748:INFO: ------------------------------------------------------------
2022-02-03 22:17:22,748:INFO: Loading the datasets...
2022-02-03 22:17:26,817:INFO: - done loading the datasets
2022-02-03 22:17:26,818:INFO: ------------------------------------------------------------
2022-02-03 22:17:26,866:INFO: Total parameters of the model= 728801
2022-02-03 22:17:26,866:INFO: Total weights of the model= 728801
2022-02-03 22:17:26,866:INFO: Model= PredictFromParticleEmbeddingNiNReLU(
  (fc_u): Linear(in_features=4, out_features=160, bias=True)
  (fc_h): Linear(in_features=480, out_features=160, bias=True)
  (fc_u_inner1): Linear(in_features=4, out_features=160, bias=True)
  (fc_u_outer1): Linear(in_features=4, out_features=160, bias=True)
  (fc_u_inner): Linear(in_features=4, out_features=160, bias=True)
  (fc_u_outer): Linear(in_features=4, out_features=160, bias=True)
  (fc_N0): Linear(in_features=160, out_features=160, bias=True)
  (fc_N1): Linear(in_features=160, out_features=160, bias=True)
  (fc_N2): Linear(in_features=160, out_features=160, bias=True)
  (fc_N3): Linear(in_features=160, out_features=160, bias=True)
  (fc_N4): Linear(in_features=160, out_features=160, bias=True)
  (fc_N5): Linear(in_features=160, out_features=160, bias=True)
  (fc_N6): Linear(in_features=160, out_features=160, bias=True)
  (fc_N7): Linear(in_features=160, out_features=160, bias=True)
  (fc_N8): Linear(in_features=160, out_features=160, bias=True)
  (fc_N9): Linear(in_features=160, out_features=160, bias=True)
  (transform): GRNNTransformSimpleNiNReLU(
    (fc_u): Linear(in_features=4, out_features=160, bias=True)
    (fc_h): Linear(in_features=480, out_features=160, bias=True)
    (fc_u_inner1): Linear(in_features=4, out_features=160, bias=True)
    (fc_u_outer1): Linear(in_features=4, out_features=160, bias=True)
    (fc_u_inner): Linear(in_features=4, out_features=160, bias=True)
    (fc_u_outer): Linear(in_features=4, out_features=160, bias=True)
    (fc_N0): Linear(in_features=160, out_features=160, bias=True)
    (fc_N1): Linear(in_features=160, out_features=160, bias=True)
    (fc_N2): Linear(in_features=160, out_features=160, bias=True)
    (fc_N3): Linear(in_features=160, out_features=160, bias=True)
    (fc_N4): Linear(in_features=160, out_features=160, bias=True)
    (fc_N5): Linear(in_features=160, out_features=160, bias=True)
    (fc_N6): Linear(in_features=160, out_features=160, bias=True)
    (fc_N7): Linear(in_features=160, out_features=160, bias=True)
    (fc_N8): Linear(in_features=160, out_features=160, bias=True)
    (fc_N9): Linear(in_features=160, out_features=160, bias=True)
  )
  (fc1): Linear(in_features=160, out_features=160, bias=True)
  (fc2): Linear(in_features=160, out_features=160, bias=True)
  (fc3): Linear(in_features=160, out_features=1, bias=True)
)
2022-02-03 22:17:26,866:INFO: ------------------------------------------------------------
2022-02-03 22:17:26,866:INFO: Building optimizer...
2022-02-03 22:17:26,867:INFO: Starting training for 30 epoch(s)
2022-02-03 22:17:28,722:INFO: Epoch 1/30
2022-02-03 22:23:21,202:INFO: - Train metrics: accuracy: 0.4987 ; loss: 0.6940
2022-02-03 22:24:11,063:INFO: - Eval metrics : accuracy: 0.5000 ; loss: 0.6935
…
